temporalData/email-EU-core/email-Eu-core-temporal-ByMonth/weight.npy (npy, 216192 bytes, 1 tensors)

array f4 [844, 64]
00000000: 6f93 97bc 5143 32bd 516e 333d 4059 14be
00000010: 1473 97bd f3a7 b8bd 59b3 713e 8ba6 83bd
00000020: 370c 44bd 0a9e f33d 9b19 6a3d 7ab4 8cbd
00000030: 3f89 e1bd 1f03 f0bc 42c7 02bd ff6b 6e3e
00000040: b80c 913e b93d babc 0ab9 dd3c 52dc ce3d
00000050: 9d51 013d 260c 6a3e 54ad 96bd eb2d 87bd
00000060: 3f6c 6f3d 89dc c7bd cc5c d0bc 3e7d 183b
00000070: c493 fd3b 5ff1 22bc faa4 62bd dffb 893d
00000080: 1950 403e 29d0 01bd 6f24 353d d978 5abc
00000090: ad15 233d 384f e7bb fc74 143e e258 88bd
000000a0: e726 563e 2de6 70bd 9082 f1bb b541 6f3e
000000b0: 1d73 5a3e 76a6 c03d 0a70 ce3d cc80 433d
000000c0: c4c9 2cbd 4a78 02bd 86e1 c5bc c748 00bd
000000d0: e95c 133e 3fff 553d 404f 77ba 7c3a 6c3c
000000e0: 993d 8fbd 2f98 d1bc f6b8 dd3c b2f6 b33c
000000f0: c83a 6cbc 4543 9a3d a203 47bc c401 ed3d
00000100: 43d0 be3c b2ad c23a bbc2 c03d a8bb 60bd
00000110: c976 d33c 9bfb 483c 4888 c43d d7ea 443c
00000120: 40f6 683d fe59 41bb e98b 2f3c 3a58 c03d
00000130: 53e3 cc3b a7cf 9d3c 04fb 94bd 8a05 4f3e
00000140: 9bed 243e 984a e73b 2469 5c3d ae36 173e
00000150: ccc1 c43b 51f2 213d 7e9b 833c 92ef b8ba
00000160: dca1 da3d 6712 9abd 6da7 cc3d d8ab ab3d
00000170: 6acc b03c ecee 573c 891a 9ebb ccdc c83b
00000180: 209e 26b9 1287 46bb 9c9c 073d 937c 88bd
00000190: c3a0 9f3c 3517 f03d 1e7e 0c3e 1026 cebb
000001a0: 2963 08bd 7521 90bd 3bcd 0c3d 9936 60bc
000001b0: e6b2 303e c6ef 73bd 8988 ca3d 8812 ba3d
000001c0: 2a0f 7e3c b5b8 88bc 1eb1 223d ffc1 a63c
000001d0: 981b 65bc fcfe 3bbc 740c 853c 097b fb3d
000001e0: 87f6 4d3d 9a79 4d3d 61fc 863d 64f4 993d
000001f0: b0c4 643c 420c 0c3b d25a 37bd 949b ebbb
00000200: 3424 623c 8a9b 923a 4ee2 0dbe 0ddb b83d
00000210: 744d 81bd e413 923d 1620 e03c e4fe 113d
00000220: dd67 e73d 13aa 9f3d 58da ebbb b3b7 f6bc
00000230: 8a34 453d e547 50bb 7e99 dc3d a6f3 40bd
00000240: c0c1 0abc 09db 803c 6e10 843c 3587 9bbd
00000250: bb58 b23d ad18 a33c 78c9 f93c 66ea 683c
00000260: 6070 f8bc e4b1 083d a3fc 63bd c00f 953c
00000270: fe44 dd3d 00e2 7e3a 8318 28bc fc12 ee3d
00000280: 17de 353d 4165 d53c 8981 bab9 fb89 853d
00000290: 5a54 073d 4ffa d7bc 752e 433c e1d0 4b3d
000002a0: a6c1 cd3d d41c bc3d 5a2f 5fbc 2e15 803d
000002b0: d831 90bd 655b 9c3d fccf 46bc 40ef 463a
000002c0: 22f7 98bc f4a4 40bc e8dc e03a a11e be3b
000002d0: 2da9 213d 39ef 123e 88c3 db3c 850b b0bd
000002e0: 23fa d3bd 0f91 b8bb 16da 37bc a0ab f1bc
000002f0: e34a 183d 1c34 663c 083a 153c ff0f 553e
00000300: 7ba8 0dbd bd6a 123d 77d8 64bb 1f71 613c
00000310: 0041 a9bd 6faf 0cbd 2d05 2abd 0610 91bc
00000320: 40be 1139 7e71 e03d 481a 2abd 5ac6 9fbd
00000330: 2ccc 643d 83c1 0dbd 1615 be3b 1ae1 dabc
00000340: 98fa bdbd d6d5 6ebd 8771 54bd 9e4e f63c
00000350: 065c a23d 64c7 6cbc 9fb2 48bd d1ae e5bc
00000360: 546e 86bd 78c2 4fbd ba9b bfbc 0f0f 45bd
00000370: e605 b7bc c3cd 05bd 9e5d 89bc bcef aa3d
00000380: 8817 7b3a 93f3 17bd 0242 333d eafd 80bd
00000390: 339c 3bbd ed6b 9fbd 7bf6 53bd 5715 ba3c
000003a0: 3310 be3d b5e6 c33d 3309 c7bc e188 85bc
000003b0: 6c27 c3bc 2e17 2ebc c47d 98bc b512 79bd
000003c0: 560d 7cbb 1652 313c 6c9f b5bb eee3 2cbd
000003d0: a79f 4bbd 7ff8 e83d 3e05 25bd 8024 29bd
000003e0: cab0 0cbd 4096 f0bc 214b 29bd 0958 d8bc
000003f0: 7995 eebc 8080 493d ec48 61bd 2dcb ad3e
-0.018502919 -0.04352123 0.043806378 -0.14487171 -0.07394996 -0.09016409 0.23603572 -0.0642825
-0.04786321 0.11895378 0.057153326 -0.06870361 -0.11012506 -0.029298363 -0.03192831 0.23283385
0.28330016 -0.02273451 0.027065773 0.101006165 0.031571973 0.22856197 -0.073572785 -0.06600555
0.05845284 -0.097588606 -0.025434874 0.002326801 0.0077385623 -0.009945243 -0.055333115 0.06737494
0.18780555 -0.031692658 0.0442242 -0.013334476 0.039815594 -0.007059004 0.14497751 -0.06657578
0.20913278 -0.058813263 -0.0073703006 0.23364909 0.21332975 0.0940675 0.100799635 0.047730252
-0.042184606 -0.031852998 -0.02415539 -0.031319406 0.14390911 0.052245375 -0.00094341114 0.014418241
-0.06994171 -0.025585262 0.027065735 0.02196822 -0.014418311 0.07532362 -0.012146862 0.115726024
0.023292666 0.0014852791 0.09412142 -0.054866463 0.025813477 0.012267019 0.09596306 0.012018881
0.056875467 -0.0029503102 0.0107145095 0.09391828 0.006252685 0.019264055 -0.0727444 0.20216957
0.16106264 0.007058453 0.053811207 0.14766952 0.0060045477 0.03953773 0.016065355 -0.0014109483
0.106754035 -0.07523041 0.099928714 0.08382386 0.021581847 0.013179522 -0.0048249406 0.0061298367
-0.000158899 -0.003029291 0.03310834 -0.06664386 0.019485837 0.117231764 0.13719985 -0.0062911585
-0.03329769 -0.070376314 0.03437541 -0.013684892 0.17255744 -0.059554838 0.09889323 0.09085566
0.015506545 -0.016689638 0.039719693 0.020356176 -0.01398363 -0.011474367 0.01624129 0.122793265
0.050283935 0.050164796 0.06591106 0.07517317 0.01396291 0.002136961 -0.044764347 -0.007190177
0.013802577 0.001118527 -0.1385586 0.090261556 -0.06313601 0.071327 0.02735905 0.035643473
0.11299107 0.07796111 -0.0071976595 -0.030116891 0.04814581 -0.0031781134 0.10771464 -0.04710736
-0.008469045 0.015729444 0.016121116 -0.07594148 0.0870833 0.019909227 0.030491576 0.014216041
-0.030327022 0.033372775 -0.055660855 0.018195987 0.10804175 0.00097230077 -0.01025975 0.11624715
0.044401255 0.026049258 -0.00035573196 0.06520458 0.03303943 -0.026364474 0.011912932 0.04975975
0.10046701 0.09185186 -0.013622129 0.0625404 -0.07040757 0.076346196 -0.012134548 0.00075887516
-0.01867253 -0.011758078 0.0017155679 0.005801991 0.03946798 0.14349069 0.026826635 -0.08595947
-0.10350444 -0.0056325267 -0.011221429 -0.029500782 0.037180793 0.01405051 0.009108074 0.20806883
-0.034584504 0.035746325 -0.0034919062 0.01375988 -0.08264351 -0.034346994 -0.041508842 -0.017707836
0.00013899151 0.10959147 -0.04152897 -0.078015044 0.055858776 -0.034608375 0.0058008535 -0.026718665
-0.092763126 -0.0583094 -0.05186608 0.030066784 0.07927708 -0.014451835 -0.04899847 -0.02803746
-0.06564012 -0.05072257 -0.023389686 -0.048110064 -0.02234168 -0.032666933 -0.016768273 0.08346507
0.00095783966 -0.037097525 0.04376412 -0.0629843 -0.04580326 -0.07784257 -0.051748734 0.022715254
0.092804335 0.09565488 -0.024296379 -0.01630062 -0.023822509 -0.010625644 -0.018614657 -0.060808856
-0.0038460097 0.0108227935 -0.005542686 -0.04220956 -0.049712803 0.11375522 -0.040288202 -0.041294575
-0.034348287 -0.02936852 -0.041331414 -0.026409166 -0.029124008 0.049194813 -0.055001184 0.33944073
