temporalData/email-EU-core/email-Eu-core-temporal-ByMonth/weight_static.npy (npy, 211584 bytes, 1 tensors)

array f4 [826, 64]
00000000: 7185 6d3d 6a86 43bd 5f66 743c f4e4 043d
00000010: a47d 5d3c 709e df3d 4319 eebc c42b 573e
00000020: aff8 633d 1f99 91bc e941 d83d 147f 623d
00000030: 5270 883e 6c97 293e ff35 7fbd d03f 03bd
00000040: 3c38 9ebd 786b 133e 7593 193e 1329 4d3d
00000050: e4fe 583d d044 bb3c fac0 143d 8b3a 00bd
00000060: 1ff8 b73d 00e7 1837 75b9 04bd 9a2b 213d
00000070: 5b58 6cbd 9d61 93bd 83bb ce3d 4f5e 63bc
00000080: 40c1 893e 9051 773e 1a4a 26bd 4287 08be
00000090: cb96 a0bd f431 8f3d 5e49 93bd b0a8 7cbd
000000a0: 16b2 2e3e a026 3dbc 3827 653e f68d 63bd
000000b0: 004e 113c b873 273d cd86 b83d f12b ac3d
000000c0: db86 5d3e 3124 183e 143d b13c 400d 86bd
000000d0: 6152 693e af3b b43d 7b4e 2e3e c470 303e
000000e0: 3c7e 973e 315f bbbc 916a 633e 2a68 383e
000000f0: 31ab 153d 7b0f 6b3d 71ff d1bc 62b0 303e
00000100: d4ee 873d c508 e63c e2ce cd3d 567b a03d
00000110: 6771 043d f3fd 1c3e ba21 0c3d 86b4 2c3e
00000120: a7e3 e83d 22cc a83d 349c bd3d a19b ba3d
00000130: 7e1a d53d c770 3f3e f1df 20bd 4ba5 a83c
00000140: 3d83 ed3c 4528 bd3d 6f36 853d d9aa ca3d
00000150: 3bdd 9c3d 7f22 693d 3f1a c53c 5875 16bc
00000160: a16e d73d 1ba3 d3bc 7050 b4bc 3286 a83d
00000170: 8b1c 97bc d32f a53c c768 953d f5f4 c13b
00000180: 810f 673e 0235 6e3e af76 0cbb 50c5 69bd
00000190: f6bf 8bbd a0f5 b73d 8b0b 5ebd 4658 973c
000001a0: ed98 403e 2888 cb3c 796f 533e df07 973c
000001b0: bb24 963d 1ce8 9e3d b15a 603d 1486 8a3d
000001c0: 6e49 3b3e 7e77 143e b165 383d 1ffa 20bc
000001d0: 31c1 2b3e b386 263e 5f19 333e e3d1 383e
000001e0: 78e6 2f3e 76df 6f3d b4d1 423e 1dd6 443e
000001f0: 2799 3c3c 3600 5e3d 7c31 213d a49a 1b3e
00000200: b267 ee3c 348d 4b3c 7daf 06bd 8f00 b53d
00000210: d94f bc3d ee78 da3d e033 9c3d fe45 913d
00000220: 9761 1cbd 70ee 7fbd 109d dfbc 313a 3ebd
00000230: f30b ccbd 2264 883d 65ee 483e d2f1 fd3d
00000240: 84bf bbbd afec 7a3c cb8c 8f3d 8765 67bd
00000250: 8ef2 c2bc f717 e63d 17ec d33d 7d32 943c
00000260: b080 29bb 680a a83d 8d57 5c3c 6af5 473d
00000270: e823 2c3e e2f5 3f3e 3f19 b6bb 68c4 163c
00000280: bb7f c83d aec2 043b ea6e 093e 25dc 59bd
00000290: 12de 443e 328a 49bd db09 613e bf64 343c
000002a0: bfc5 a63d db8b ccbd f35b 243d 69ec f0bb
000002b0: 3457 20bd 9d4a 993d ae7a 49bc 8cef 1f3c
000002c0: d58b 153e 6613 4c3d f77b d5bd 979a 413e
000002d0: 0fe1 15bb ea07 82bd 0416 94bd 247c dd3d
000002e0: f7eb 23bd fe7c a7bc 3b40 a13d 0f09 edbc
000002f0: 2a8f 863d c029 173d 0851 ce3d f9af 143e
00000300: 736f cb3c fd9d bb3d 58a2 1d3d 1d20 823d
00000310: 7d6d 3f3e 5cdf a5ba dd04 913c e48c eebc
00000320: 2536 383d d584 3a3e 796a 723d 7544 253e
00000330: 7cab 953d e569 d53a 0f84 8cba 707e ef39
00000340: 4ede 413e 82e1 153d ac3c 53ba d2a9 013e
00000350: 265b 923d f45b d53b f5ba 333e 5079 c53d
00000360: 06d7 513c 5594 093e a0d1 6d3e e5de 963d
00000370: 10ea 28bc bae6 a53d 8cbf e93b 2e9f 443e
00000380: 5c2e 9ebb c82f 98bc 43d0 3f3d 0a8e 2a3e
00000390: 6a2d 943c 5880 bd3c 9874 573d f9d5 4d3e
000003a0: 42d5 2fbc 52d9 d13d 9586 89bd 687d d13d
000003b0: 4417 a33d e769 df3d be91 593d 3499 923d
000003c0: d9fd 0dbd cc2c 323d 66e9 133e 2142 9b3c
000003d0: 94c9 81bc 4023 d23d 7b83 133e e921 a4bb
000003e0: 144f 6dbc 43aa 083d b68b f9bc d1e4 4dbb
000003f0: ce49 5e3e ca7f 303e 6447 b03b c85a 19bd
0.057988588 -0.04773561 0.014916985 0.03244491 0.013518725 0.109188914 -0.02906478 0.21012789
0.055657085 -0.01777321 0.10559446 0.055296972 0.26648194 0.16561669 -0.062307354 -0.03204328
-0.077255696 0.14396465 0.14997657 0.050088 0.052977458 0.02285996 0.03631685 -0.03130583
0.08982872 9.11369e-06 -0.032403428 0.039348222 -0.05770145 -0.07196353 0.10094359 -0.013877465
0.2690525 0.24152207 -0.040598013 -0.13332847 -0.078412615 0.0699195 -0.07191728 -0.06168431
0.17060122 -0.011544853 0.22378242 -0.055555306 0.008868694 0.040881842 0.09010086 0.08406819
0.21633475 0.14857556 0.02163557 -0.06545496 0.22785331 0.08800446 0.17022125 0.17230517
0.29588497 -0.02287254 0.2220862 0.18008485 0.036540214 0.05738781 -0.0256345 0.17254785
0.0663735 0.028080354 0.100492254 0.078360245 0.03233471 0.15331249 0.03421185 0.16865739
0.11371546 0.0824206 0.09258309 0.09111715 0.104054436 0.18695365 -0.039276067 0.02058663
0.028993243 0.092361964 0.06504523 0.09895868 0.07659384 0.056917664 0.024060367 -0.00918325
0.10519148 -0.02583461 -0.022011012 0.08228721 -0.018446228 0.020164406 0.07295375 0.0059190937
0.22564508 0.23262408 -0.0021433046 -0.057072937 -0.06823723 0.08982396 -0.054210227 0.01847471
0.18808337 0.024845198 0.20647992 0.01843637 0.073312245 0.07759115 0.05477399 0.067638546
0.1828973 0.14498708 0.045018855 -0.0098252585 0.16772915 0.16262321 0.17490147 0.18048815
0.1717776 0.05856272 0.19025308 0.19222303 0.011511124 0.05419942 0.039353833 0.1519571
0.02910218 0.012423802 -0.032882202 0.08837997 0.09194917 0.10667597 0.07627082 0.07093428
-0.038179006 -0.06248325 -0.027296573 -0.046442214 -0.09963217 0.06659724 0.1962219 0.12399639
-0.09167388 0.015315219 0.07009276 -0.05649331 -0.0237973 0.1123504 0.10347765 0.018090481
-0.0025864057 0.0820511 0.013448608 0.04881803 0.16810572 0.1874614 -0.005557209 0.0092021
0.09789988 0.002025764 0.13421217 -0.05318846 0.19225338 -0.04920406 0.21976416 0.011010348
0.08143186 -0.09987613 0.040126752 -0.007352401 -0.039145663 0.074849345 -0.0122973155 0.009761702
0.14604123 0.049823187 -0.10424035 0.18906628 -0.002286974 -0.06349166 -0.07230762 0.108146936
-0.040019955 -0.020445343 0.07873579 -0.028934984 0.06570275 0.03690505 0.10074049 0.14520253
0.024833417 0.09160993 0.0384849 0.06353781 0.1869411 -0.0012655067 0.017702514 -0.029119916
0.04497351 0.18214734 0.05918357 0.16139396 0.07308099 0.0016282169 -0.0010720509 0.00045679836
0.18932459 0.036592014 -0.0008058052 0.12662438 0.071462914 0.006511206 0.17551787 0.09642279
0.012807613 0.1343549 0.23224497 0.073667325 -0.010309711 0.08100648 0.00713343 0.19201347
-0.004827304 -0.018577471 0.046829473 0.16655746 0.018088061 0.023132488 0.052601427 0.20101155
-0.010731997 0.10246529 -0.067151226 0.102289975 0.07963422 0.10908871 0.053117506 0.071581274
-0.034665916 0.043499753 0.14444503 0.018952431 -0.01584319 0.1026063 0.14405625 -0.005008925
-0.014484186 0.0333655 -0.030462127 -0.0031416903 0.21707842 0.17236248 0.005379604 -0.03744009
